
*** src/probe/compile.rs:57:5: replace level7_mil_compile with ()

*** mutation diff:
--- src/probe/compile.rs
+++ replace level7_mil_compile with ()
@@ -49,77 +49,17 @@
 type MsgSendStr = unsafe extern "C" fn(ObjcId, ObjcSel) -> ObjcId;
 type MsgSendUtf8 = unsafe extern "C" fn(ObjcId, ObjcSel) -> *const c_char;
 
 // ============================================================
 // Level 7: Compile MIL -> ANE bytecode
 // ============================================================
 
 pub(crate) fn level7_mil_compile() {
-    println!("\n═══════════════════════════════════════════════════");
-    println!("  LEVEL 7: MIL → ANE Bytecode (Pure Rust)");
-    println!("═══════════════════════════════════════════════════\n");
-
-    // ── Step 1: Minimal MIL program ──
-    // Dynamic matmul: y = x @ W (exact format from training_dynamic/mil_dynamic.h)
-    // Input: [1, 64, 1, 128] — first 64 cols = activations, last 64 = weights
-    // Output: [1, 64, 1, 64] — matmul result
-    let ic = 64;
-    let oc = 64;
-    let seq = 64;
-    let sp = seq + oc; // 128
-
-    let mil = format!(
-        concat!(
-            "program(1.3)\n",
-            "[buildInfo = dict<string, string>(",
-            "{{{{\"coremlc-component-MIL\", \"3510.2.1\"}}, ",
-            "{{\"coremlc-version\", \"3505.4.1\"}}, ",
-            "{{\"coremltools-component-milinternal\", \"\"}}, ",
-            "{{\"coremltools-version\", \"9.0\"}}}}",
-            ")]\n{{\n",
-            "    func main<ios18>(tensor<fp16, [1, {ic}, 1, {sp}]> x) {{\n",
-            "        tensor<int32, [4]> ba = const()[name=string(\"ba\"), val=tensor<int32, [4]>([0,0,0,0])];\n",
-            "        tensor<int32, [4]> sa = const()[name=string(\"sa\"), val=tensor<int32, [4]>([1,{ic},1,{seq}])];\n",
-            "        tensor<fp16, [1,{ic},1,{seq}]> act = slice_by_size(x=x,begin=ba,size=sa)[name=string(\"act\")];\n",
-            "        tensor<int32, [4]> bw = const()[name=string(\"bw\"), val=tensor<int32, [4]>([0,0,0,{seq}])];\n",
-            "        tensor<int32, [4]> sw = const()[name=string(\"sw\"), val=tensor<int32, [4]>([1,{ic},1,{oc}])];\n",
-            "        tensor<fp16, [1,{ic},1,{oc}]> wt = slice_by_size(x=x,begin=bw,size=sw)[name=string(\"wt\")];\n",
-            "        tensor<int32, [4]> ra = const()[name=string(\"ra\"), val=tensor<int32, [4]>([1,1,{ic},{seq}])];\n",
-            "        tensor<fp16, [1,1,{ic},{seq}]> a2 = reshape(shape=ra,x=act)[name=string(\"a2\")];\n",
-            "        tensor<int32, [4]> pm = const()[name=string(\"pm\"), val=tensor<int32, [4]>([0,1,3,2])];\n",
-            "        tensor<fp16, [1,1,{seq},{ic}]> a3 = transpose(perm=pm,x=a2)[name=string(\"a3\")];\n",
-            "        tensor<int32, [4]> rw = const()[name=string(\"rw\"), val=tensor<int32, [4]>([1,1,{ic},{oc}])];\n",
-            "        tensor<fp16, [1,1,{ic},{oc}]> W = reshape(shape=rw,x=wt)[name=string(\"W\")];\n",
-            "        bool bF = const()[name=string(\"bF\"), val=bool(false)];\n",
-            "        tensor<fp16, [1,1,{seq},{oc}]> yh = matmul(transpose_x=bF,transpose_y=bF,x=a3,y=W)[name=string(\"yh\")];\n",
-            "        tensor<fp16, [1,1,{oc},{seq}]> yt = transpose(perm=pm,x=yh)[name=string(\"yt\")];\n",
-            "        tensor<int32, [4]> ro = const()[name=string(\"ro\"), val=tensor<int32, [4]>([1,{oc},1,{seq}])];\n",
-            "        tensor<fp16, [1,{oc},1,{seq}]> y = reshape(shape=ro,x=yt)[name=string(\"y\")];\n",
-            "    }} -> (y);\n",
-            "}}\n"
-        ),
-        ic=ic, oc=oc, seq=seq, sp=sp
-    );
-    println!("  MIL program ({} bytes):", mil.len());
-    for line in mil.lines() {
-        if !line.is_empty() {
-            println!("    {}", line);
-        }
-    }
-
-    // ── Step 2: Try ANECCompile C API first ──
-    println!("\n  ── Approach A: ANECCompile (pure C) ──\n");
-    let approach_a_ok = try_anec_compile(&mil);
-
-    if !approach_a_ok {
-        // ── Step 3: ObjC runtime path ──
-        println!("\n  ── Approach B: ObjC runtime from Rust ──\n");
-        try_objc_compile(&mil);
-    }
+    () /* ~ changed by cargo-mutants ~ */
 }
 
 fn try_anec_compile(_mil: &str) -> bool {
     // ANECCreateCompilerInputDictionary/OptionDictionary hang when called
     // with no args — they likely require arguments we don't know yet.
     // Skip pure C API for now, go straight to ObjC runtime path.
     println!("  [~] Skipping ANECCompile C API (helper functions require");
     println!("      unknown arguments). Using ObjC runtime instead.");


*** /Users/mastercyb/.rustup/toolchains/stable-aarch64-apple-darwin/bin/cargo test --no-run --verbose --package=rane@0.1.0
       Fresh crossbeam-utils v0.8.21
       Fresh crossbeam-queue v0.3.12
       Fresh unimem v0.1.0 (/Users/mastercyb/git/unimem)
       Fresh acpu v0.1.0 (/Users/mastercyb/git/acpu)
       Dirty rane v0.1.0 (/private/var/folders/55/99z672mn2w7_5zwfg60nnvb40000gn/T/cargo-mutants-rane-abUyAo.tmp): the file `src/probe/compile.rs` has changed (1775043305.861765763s, 5s after last build at 1775043300.334020846s)
   Compiling rane v0.1.0 (/private/var/folders/55/99z672mn2w7_5zwfg60nnvb40000gn/T/cargo-mutants-rane-abUyAo.tmp)
     Running `/Users/mastercyb/.rustup/toolchains/stable-aarch64-apple-darwin/bin/rustc --crate-name rane_probe --edition=2021 src/probe/main.rs --error-format=json --json=diagnostic-rendered-ansi,artifacts,future-incompat --emit=dep-info,link -C embed-bitcode=no -C debuginfo=2 -C split-debuginfo=unpacked --test --check-cfg 'cfg(docsrs,test)' --check-cfg 'cfg(feature, values())' -C metadata=4bc42abd1761e143 -C extra-filename=-389f422620ed0214 --out-dir /private/var/folders/55/99z672mn2w7_5zwfg60nnvb40000gn/T/cargo-mutants-rane-abUyAo.tmp/target/debug/deps -C incremental=/private/var/folders/55/99z672mn2w7_5zwfg60nnvb40000gn/T/cargo-mutants-rane-abUyAo.tmp/target/debug/incremental -L dependency=/private/var/folders/55/99z672mn2w7_5zwfg60nnvb40000gn/T/cargo-mutants-rane-abUyAo.tmp/target/debug/deps --extern acpu=/private/var/folders/55/99z672mn2w7_5zwfg60nnvb40000gn/T/cargo-mutants-rane-abUyAo.tmp/target/debug/deps/libacpu-356fb24183414b8b.rlib --extern rane=/private/var/folders/55/99z672mn2w7_5zwfg60nnvb40000gn/T/cargo-mutants-rane-abUyAo.tmp/target/debug/deps/librane-9dba0de8bd33b846.rlib --extern unimem=/private/var/folders/55/99z672mn2w7_5zwfg60nnvb40000gn/T/cargo-mutants-rane-abUyAo.tmp/target/debug/deps/libunimem-5f3db965c562320d.rlib`
     Running `/Users/mastercyb/.rustup/toolchains/stable-aarch64-apple-darwin/bin/rustc --crate-name rane_probe --edition=2021 src/probe/main.rs --error-format=json --json=diagnostic-rendered-ansi,artifacts,future-incompat --crate-type bin --emit=dep-info,link -C embed-bitcode=no -C debuginfo=2 -C split-debuginfo=unpacked --check-cfg 'cfg(docsrs,test)' --check-cfg 'cfg(feature, values())' -C metadata=fba5b9fcd8f4be69 -C extra-filename=-d97ac62dd57c62e6 --out-dir /private/var/folders/55/99z672mn2w7_5zwfg60nnvb40000gn/T/cargo-mutants-rane-abUyAo.tmp/target/debug/deps -C incremental=/private/var/folders/55/99z672mn2w7_5zwfg60nnvb40000gn/T/cargo-mutants-rane-abUyAo.tmp/target/debug/incremental -L dependency=/private/var/folders/55/99z672mn2w7_5zwfg60nnvb40000gn/T/cargo-mutants-rane-abUyAo.tmp/target/debug/deps --extern acpu=/private/var/folders/55/99z672mn2w7_5zwfg60nnvb40000gn/T/cargo-mutants-rane-abUyAo.tmp/target/debug/deps/libacpu-356fb24183414b8b.rlib --extern rane=/private/var/folders/55/99z672mn2w7_5zwfg60nnvb40000gn/T/cargo-mutants-rane-abUyAo.tmp/target/debug/deps/librane-9dba0de8bd33b846.rlib --extern unimem=/private/var/folders/55/99z672mn2w7_5zwfg60nnvb40000gn/T/cargo-mutants-rane-abUyAo.tmp/target/debug/deps/libunimem-5f3db965c562320d.rlib`
    Finished `test` profile [unoptimized + debuginfo] target(s) in 0.27s
  Executable `/private/var/folders/55/99z672mn2w7_5zwfg60nnvb40000gn/T/cargo-mutants-rane-abUyAo.tmp/target/debug/deps/rane-4caeb28bedddab43`
  Executable `/private/var/folders/55/99z672mn2w7_5zwfg60nnvb40000gn/T/cargo-mutants-rane-abUyAo.tmp/target/debug/deps/rane_probe-389f422620ed0214`
  Executable `/private/var/folders/55/99z672mn2w7_5zwfg60nnvb40000gn/T/cargo-mutants-rane-abUyAo.tmp/target/debug/deps/hardware-c302cd964cd4bbc6`
  Executable `/private/var/folders/55/99z672mn2w7_5zwfg60nnvb40000gn/T/cargo-mutants-rane-abUyAo.tmp/target/debug/deps/integration-1f8fc362df896cd8`

*** result: Success

*** /Users/mastercyb/.rustup/toolchains/stable-aarch64-apple-darwin/bin/cargo test --verbose --package=rane@0.1.0
       Fresh crossbeam-utils v0.8.21
       Fresh crossbeam-queue v0.3.12
       Fresh unimem v0.1.0 (/Users/mastercyb/git/unimem)
       Fresh acpu v0.1.0 (/Users/mastercyb/git/acpu)
       Fresh rane v0.1.0 (/private/var/folders/55/99z672mn2w7_5zwfg60nnvb40000gn/T/cargo-mutants-rane-abUyAo.tmp)
    Finished `test` profile [unoptimized + debuginfo] target(s) in 0.00s
     Running `/private/var/folders/55/99z672mn2w7_5zwfg60nnvb40000gn/T/cargo-mutants-rane-abUyAo.tmp/target/debug/deps/rane-4caeb28bedddab43`

running 0 tests

test result: ok. 0 passed; 0 failed; 0 ignored; 0 measured; 0 filtered out; finished in 0.00s

     Running `/private/var/folders/55/99z672mn2w7_5zwfg60nnvb40000gn/T/cargo-mutants-rane-abUyAo.tmp/target/debug/deps/rane_probe-389f422620ed0214`

running 0 tests

test result: ok. 0 passed; 0 failed; 0 ignored; 0 measured; 0 filtered out; finished in 0.00s

     Running `/private/var/folders/55/99z672mn2w7_5zwfg60nnvb40000gn/T/cargo-mutants-rane-abUyAo.tmp/target/debug/deps/hardware-c302cd964cd4bbc6`

running 8 tests
test compile_load_run_identity ... ok
test compile_load_unload ... ok
test double_unload_is_safe ... ok
test matmul_various_sizes ... ok
test multiple_runs_same_model ... ok
test run_direct_with_raw_surfaces ... ok
test run_direct_with_unimem_block ... ok
test run_without_load_fails ... ok

test result: ok. 8 passed; 0 failed; 0 ignored; 0 measured; 0 filtered out; finished in 0.53s

     Running `/private/var/folders/55/99z672mn2w7_5zwfg60nnvb40000gn/T/cargo-mutants-rane-abUyAo.tmp/target/debug/deps/integration-1f8fc362df896cd8`

running 16 tests
test ane_error_display_variants ... ok
test buffer_oversized_is_err ... ok
test buffer_zero_size_is_err ... ok
test gen_dyn_matmul_produces_mil_ops ... ok
test fp16_bulk_conversion ... ok
test fp16_roundtrip_exact ... ok
test mil_header_contains_keywords ... ok
test mil_footer_contains_closing ... ok
test mil_matmul_shape ... ok
test mil_matmul_text_is_valid ... ok
test pack_weights_length_and_header ... ok
test pack_weights_empty ... ok
test surface_bounds_check ... ok
test surface_create_and_size ... ok
test surface_with_shape ... ok
test surface_write_read_roundtrip ... ok

test result: ok. 16 passed; 0 failed; 0 ignored; 0 measured; 0 filtered out; finished in 0.12s

   Doc-tests rane
     Running `/Users/mastercyb/.rustup/toolchains/stable-aarch64-apple-darwin/bin/rustdoc --edition=2021 --crate-type lib --color auto --crate-name rane --test src/lib.rs --test-run-directory /private/var/folders/55/99z672mn2w7_5zwfg60nnvb40000gn/T/cargo-mutants-rane-abUyAo.tmp -L dependency=/private/var/folders/55/99z672mn2w7_5zwfg60nnvb40000gn/T/cargo-mutants-rane-abUyAo.tmp/target/debug/deps -L dependency=/private/var/folders/55/99z672mn2w7_5zwfg60nnvb40000gn/T/cargo-mutants-rane-abUyAo.tmp/target/debug/deps --extern acpu=/private/var/folders/55/99z672mn2w7_5zwfg60nnvb40000gn/T/cargo-mutants-rane-abUyAo.tmp/target/debug/deps/libacpu-356fb24183414b8b.rlib --extern rane=/private/var/folders/55/99z672mn2w7_5zwfg60nnvb40000gn/T/cargo-mutants-rane-abUyAo.tmp/target/debug/deps/librane-9dba0de8bd33b846.rlib --extern unimem=/private/var/folders/55/99z672mn2w7_5zwfg60nnvb40000gn/T/cargo-mutants-rane-abUyAo.tmp/target/debug/deps/libunimem-5f3db965c562320d.rlib -C embed-bitcode=no --check-cfg 'cfg(docsrs,test)' --check-cfg 'cfg(feature, values())' --error-format human`

running 1 test
test src/lib.rs - (line 8) - compile ... ok

test result: ok. 1 passed; 0 failed; 0 ignored; 0 measured; 0 filtered out; finished in 0.08s


*** result: Success
